cw/checkpoint.pth (torch, 28543 bytes, 8 tensors)

fully_connected_layer_1.weight f4 [8, 768]
00000000: c0df afbc e8e4 083c 5c9f 0f3d b683 8f3c
00000010: 2c4d ba3c 8463 993c 3057 fbbc c0fd d43c
00000020: 0179 f7bc 286f 143c 8fe2 9339 381a 8fbc
00000030: 822c 3d3a b0aa ae3c e442 f53c 2891 df3c
00000040: 8008 c3bb 82cb c9bc 689f 0fbd 3573 f9bc
00000050: 8830 103d ba47 a4bc 15af f1bc 770a 0ebd
00000060: c605 8c3c c49a 933c 7eae 51bc 8001 09bd
00000070: 3e3f 803c 56a8 90bc a0b1 613c 3882 da3c
00000080: 903f 4dbc 04b4 833c f436 e73c f566 06bd
00000090: 0c32 603c 90af 883b 7ece 04bd 7a3b d33c
000000a0: f493 1b3c ac32 bdbc 8e49 43bc e08c c93b
000000b0: 504a 5bbb 15da c7bc e037 bdbc 92dd 853c
000000c0: dc85 b33c 94ad 253c b5f8 90bc aae0 49bc
000000d0: b925 d3bc d370 003a d840 3c3c b415 7fbc
000000e0: 7a29 093d 61ac e8bc 0800 733c 41ee 97bc
000000f0: 682e 923b 0f8d a1bc 0850 693a 403e c23c
00000100: b997 adbc f42a de3c c88b bb3c e666 9f3c
00000110: a04c 263c e43e ed3c e22e 0dbc 8654 813c
00000120: b013 6abc 2859 eebc 205c 98bc ca3d 853c
00000130: 447b c83c 7070 a43b bf3a a7ba 6836 9f3b
00000140: 9cf2 0a3d 14ee 193c 8282 b5b9 bd1e b13a
00000150: fb6a ed3a 346a bdbc 027d 08bd 07c2 6e3b
00000160: bd68 e8bc 1ad3 0cbd b839 113d 4414 dbbc
00000170: 2eab cd3c defe 11bd 706b c1bc 5e53 043d
00000180: 7a46 cfbc 9653 0fbd a85a ebbb c86e de3c
00000190: b625 0abd 48cf df3c 1705 87ba 24b9 ed3c
000001a0: 3cd0 353c 1be3 bcba 30f0 80bb b8a7 193c
000001b0: d007 c8bc 58fe 063d b118 99bc e856 d6bc
000001c0: 42b2 7abc 003c c13c 103b f4bc 1a06 b83c
000001d0: deff 29bc e478 0e3d 2405 cb3c 6547 ccbc
000001e0: 6cdc 01bd bd0e e1bc ee85 4abc 6431 c23c
000001f0: c438 0a3d 60cd a8bb 527d 0ebd a208 23bc
00000200: c41b ee3c 4009 60bc a422 b3bc c424 07bd
00000210: 18ff f33b c171 0c3b b07a e3bc 9ec3 c53c
00000220: f8f6 45bb a8ac ffbc 5687 1abc f233 b03c
00000230: eab5 b93c 0667 c2bc 00d1 fc3c 1434 8a3c
00000240: 5799 96bc 4012 c73b 2007 04bb 54d3 49bc
00000250: 6a38 5dbc 8d94 d938 88b3 f73c 0e15 b0bc
00000260: 2c32 f03c 31a5 883a 18b9 5fbc f43f 25bc
00000270: 637b 90bc 7168 9fbc b063 523c c45a ffbb
00000280: 20db d73c 4880 8c3b f077 e43c 44bf 0bbd
00000290: 20bd 863c ccf0 c7bc 4e96 44bc 7a5c 06bd
000002a0: d2f4 853c 586b c13c 1cdd 873c b479 a2bc
000002b0: e041 72bb 6212 e0bc 4929 f8bc 8967 a6bc
000002c0: 1d37 aeba c03d a53c e742 b4bc f8fc 0d3d
000002d0: 9e7e 933c 255d 01bd 4c0d e7bc 50b3 933b
000002e0: b41e fa3c 7c84 fa3c 240c e43c d83d ec3b
000002f0: f2cd 0abd 60a1 a4bb e21e 0d3d b0a2 db3c
00000300: a001 8b3b eec7 05bc a235 d8bc e03a 9d3c
00000310: 81f4 6c38 c06c 1bbb 301c 823b 3cdf d7bc
00000320: 4a52 bd3c b8b2 f0bc 22a7 11bd 4c09 fe3c
00000330: 5c3c fa3c f874 dc3c c4d3 0f3c b40f 57bc
00000340: 5f91 9dbc e4c2 0bbd 4c1b a43c 6873 413c
00000350: 3e95 b7bc 0f8a 2bbb 8295 0cbc 0042 52bc
00000360: 00f9 d9bc f34c 433b 2ce6 e2bc 0675 15bc
00000370: 1439 fd3c 8cc5 f93c 7367 bfb9 ffad 4bba
00000380: e250 c03c 0e35 0abb 7c10 053c e4d8 b4bb
00000390: 9ac6 09bd 32cd f4bc 4e69 e6bc 0c6d 723c
000003a0: f85f 9d3b 18fb 92bb 821f 1fbc a8c4 a73b
000003b0: ec0c 4d3c 2304 0bbd 800e 723a 166e cc3c
000003c0: 702c ce3b 4846 b93c c20a 873c 50db 7cbb
000003d0: 0a7b e6bc 4eee b73c 9001 5b3c 7662 eabc
000003e0: 102f 0cbd eae4 b7bc 0a93 04bd 2c72 67bc
000003f0: 7a59 93bc e844 bc3b e8cb 783c 3c67 3cba
-0.021468997 0.008355357 0.035064086 0.01751886 0.022741877 0.01872421 -0.030681223 0.025999904
-0.030209066 0.009059705 0.00028206824 -0.017468557 0.000721641 0.021321625 0.029939122 0.027290896
-0.005951941 -0.024633173 -0.03506413 -0.030450443 0.035202533 -0.020053733 -0.02950243 -0.03467795
0.017092597 0.018018134 -0.01279795 -0.033448696 0.015655156 -0.017658394 0.013775259 0.026673421
-0.0125273615 0.01607705 0.028224446 -0.03281303 0.013683807 0.0041713193 -0.03242349 0.025785197
0.009495724 -0.023095451 -0.011919392 0.006150827 -0.0033461042 -0.024395982 -0.023097932 0.016341005
0.021914415 0.010112185 -0.017696718 -0.0123216305 -0.025774824 0.00048996246 0.011490069 -0.015569139
0.03348682 -0.02840251 0.01483155 -0.018546226 0.0044610985 -0.019720582 0.000890017 0.023711324
-0.021190511 0.027120091 0.022893801 0.019458245 0.010150105 0.028960653 -0.008617135 0.015787374
-0.01428692 -0.029095247 -0.018598616 0.016264815 0.02447284 0.0050182864 -0.0012758597 0.0048587807
0.033922777 0.009395141 -0.00034620246 0.0013513189 0.0018113548 -0.02312193 -0.03332234 0.0036431567
-0.028370256 -0.03438101 0.035455436 -0.026743062 0.025106039 -0.03564345 -0.0236108 0.032306068
-0.02530216 -0.034991823 -0.007182438 0.027152434 -0.03372737 0.02732052 -0.00103012 0.029018946
0.01109701 -0.0014410944 -0.0039348826 0.009378366 -0.024417788 0.032957405 -0.018688532 -0.026164487
-0.015301289 0.02358818 -0.02981332 0.022463847 -0.010375945 0.03478326 0.024782725 -0.024936387
-0.03170435 -0.027472848 -0.012361033 0.023705192 0.033745542 -0.0051514357 -0.034787484 -0.009950789
0.029065974 -0.01367408 -0.021867104 -0.032994047 0.007446181 0.0021430107 -0.027768463 0.02414113
-0.003020702 -0.031210259 -0.009431681 0.021509144 0.022669751 -0.023730766 0.030861378 0.016870536
-0.018383665 0.0060751736 -0.0020145848 -0.012318451 -0.01350222 0.00010375036 0.030236974 -0.021494415
0.029320799 0.0010425207 -0.01365497 -0.010086048 -0.01763696 -0.019458981 0.01284115 -0.0077928025
0.026349604 0.0042877533 0.027889222 -0.034117952 0.016447604 -0.024406813 -0.011998726 -0.032803036
0.016352091 0.023610756 0.016584925 -0.019833423 -0.0036965534 -0.027352516 -0.030293124 -0.020313041
-0.0013291572 0.020171046 -0.022004558 0.034665078 0.018004712 -0.03158297 -0.028204583 0.0045074597
0.030532219 0.030580752 0.02783782 0.007209521 -0.03388781 -0.00502412 0.03445328 0.026810974
0.004242137 -0.008165343 -0.026392762 0.019193113 5.6494497e-05 -0.0023715943 0.0039706454 -0.026351564
0.023110528 -0.029382095 -0.03555978 0.031010292 0.03054636 0.026911244 0.008778516 -0.0131263025
-0.019234357 -0.03412141 0.020032547 0.0118073 -0.022410031 -0.0026174819 -0.008580567 -0.012833118
-0.02660799 0.0029800504 -0.027697645 -0.009122139 0.030911006 0.030489706 -0.00036507435 -0.0007769763
0.023476068 -0.0021088752 0.008121606 -0.0055190194 -0.033636667 -0.029883001 -0.028126385 0.014796507
0.0048027 -0.004485499 -0.009712102 0.005119879 0.012515288 -0.033939492 0.0009233728 0.024954837
0.0062919185 0.02261652 0.016484622 -0.003858287 -0.028134841 0.0224525 0.013367072 -0.028611403
-0.03422457 -0.022448022 -0.03236679 -0.014126342 -0.017987002 0.005745519 0.015185334 -0.0007187014

fully_connected_layer_1.bias f4 [8]
00000000: a034 443c 27a8 97bc 1c8c d8bc 58c9 dd3c
00000010: 3448 59bc aec9 a53c 985b f93c a032 c5bc
0.011975437 -0.018512798 -0.026433997 0.027073547 -0.0132618435 0.02023777 0.030439183 -0.024071991

fully_connected_layer_2.weight f4 [8, 8]
00000000: 2551 a83e 0a89 38be a191 9abe fc16 f23d
00000010: e0fc c13d 9c68 69be 4012 823c 6410 6bbe
00000020: b4ea 20be fa96 74be b8e3 a0be ce50 533e
00000030: 7f63 873e 19fd a83e e6dc 1d3e dc65 ee3d
00000040: 4a84 43be c076 56bc 1871 16bd 4b80 a03e
00000050: c7d9 ad3e 9803 583d 6e9b 253e f008 8ebd
00000060: 401a b03b b68d acbe 6210 563e 60c5 73be
00000070: c04f a23b b086 b0bc 9be5 66be fa6f 353e
00000080: 616c 853e 12da 233e 6837 44bd fc31 a6be
00000090: e9e6 aabe e67d 46be 88e1 853d 4923 acbe
000000a0: 37e6 813e 02b6 8cbe 8d8e b23e f417 813d
000000b0: 71e6 4ebe 94d7 76be 2fc3 8ebe 00ee 083b
000000c0: 0090 e5bb c887 ec3d 72de 5d3e c0b0 a93c
000000d0: ca04 5ebe 6196 85be ab3d 983e 56d8 e6bd
000000e0: 866a adbe 265d 673e 502c c3bc deca 4c3e
000000f0: 0628 efbd bdab a4be cbca a93e f809 43bd
0.32874408 -0.18021026 -0.3018923 0.1182079 0.0947206 -0.22793812 0.015877843 -0.22955471
-0.15714532 -0.23885718 -0.31423736 0.20636293 0.26443097 0.33005598 0.15416297 0.11640522
-0.19093433 -0.013089836 -0.03672895 0.3134788 0.33955213 0.052737802 0.16172573 -0.069352984
0.005374223 -0.33701867 0.20904687 -0.23805761 0.0049533546 -0.021548599 -0.22548525 0.17718497
0.2605925 0.16001156 -0.047904402 -0.3246001 -0.33379295 -0.19383964 0.06537157 -0.3362067
0.25370952 -0.2748261 0.34874383 0.06303397 -0.20205094 -0.24105674 -0.27883288 0.0020893812
-0.0070056915 0.11549336 0.21666887 0.020714164 -0.21681514 -0.26091293 0.2973455 -0.112717316
-0.33870333 0.22594127 -0.02382484 0.19999263 -0.11677556 -0.32162276 0.3316253 -0.04761693

fully_connected_layer_2.bias f4 [8]
00000000: 00b7 05bd 2f04 a93e 7dc2 b13e e87f 39bd
00000010: 8c16 053e 89d2 9ebe 509b bfbd 76ff 2a3e
-0.032645226 0.33011004 0.34718695 -0.045287997 0.12996882 -0.3102 -0.093557954 0.16699013

fully_connected_layer_3.weight f4 [8, 8]
00000000: cccb febd 1e89 6b3e 9c4e 923d 62e1 06be
00000010: 6a37 77be a675 5d3e a078 8d3c b969 883e
00000020: 8cdb abbe fce8 f03d 688c 613d 9439 b93d
00000030: 60ac 33bc d753 813e 3067 0abe 8409 d83d
00000040: e2e3 573e 5cae 58be e4f5 893d 208d 80bd
00000050: 77a2 2bbe c212 303e 18dd a3be 12ff 2c3e
00000060: 205e a9be 6e4d 443e fcf9 88be 91ec 01be
00000070: 9015 2d3d a5c1 b0be 4c52 97be 5f3b 8b3e
00000080: c4f4 2dbe 28d6 91bd 5447 f4bd 942c f7bd
00000090: f9d5 94be 5c44 94bd d4f4 c23d 6110 43be
000000a0: b1f2 44be 0b74 3b3d ac1a c03d b06f fa3c
000000b0: a452 b6bd 16fe 74be cd15 acbe 8470 4fbe
000000c0: b0a1 b83c 346d fcbd ed9d 843e 1699 9bbe
000000d0: 20d5 3f3c 775b af3e c030 7c3c f334 0cbe
000000e0: 4663 acbe aab9 6a3e fcde 83be a072 49bd
000000f0: c810 b8bd 8c77 9bbd d213 84be 0cf7 4cbe
-0.12441215 0.23001525 0.071439 -0.13171914 -0.24142233 0.2162691 0.017269433 0.2664316
-0.33565938 0.11763188 0.055065542 0.09044185 -0.01096639 0.25259277 -0.13515925 0.1054869
0.21083024 -0.21160263 0.06736353 -0.062769175 -0.16761194 0.17194656 -0.3200462 0.16894177
-0.33079624 0.19170162 -0.26753223 -0.12687899 0.04225689 -0.3452274 -0.29554975 0.27193734
-0.16987902 -0.07120925 -0.11927667 -0.120690495 -0.29069498 -0.07239601 0.095193535 -0.19049217
-0.19233204 0.045764964 0.09380087 0.030570835 -0.08902481 -0.23925051 -0.33610383 -0.20257765
0.022538036 -0.12325516 0.25901738 -0.30390233 0.011708528 0.3424947 0.015392482 -0.13692074
-0.3366949 0.22922388 -0.2575606 -0.04918158 -0.08987576 -0.07591161 -0.25796372 -0.20016116

fully_connected_layer_3.bias f4 [8]
00000000: 94d4 dabd 230f 26be 40d0 19bd c045 083e
00000010: 4012 3bbd 2e69 793e e4c4 9d3c 17f3 09be
-0.10685077 -0.16216712 -0.03755212 0.13307858 -0.0456717 0.24356529 0.019258924 -0.13471638

output.weight f4 [10, 8]
00000000: 8212 7f3e 4c88 dbbd 6032 c83d 1b14 9d3e
00000010: ca2b 52be 25f4 833e 3e00 523e 5439 5bbe
00000020: cd23 293c a5d3 a63e f690 5a3e 88ec 9cbe
00000030: 69e1 07be a876 4dbe 3c51 933d 905f 703d
00000040: df6c 07be 56ec 443e 90bc 6bbd 0842 26bd
00000050: 0e75 49be 03f3 aa3e 6bb3 9c3e d130 933e
00000060: 92d0 a2be 948b 153e 0aa9 12be 8ffc 90be
00000070: c58c a83e d94f 9a3e f666 febd 2bfc 9f3e
00000080: cc15 963d c9cf 47be b652 5b3e 2c66 79be
00000090: dccb 94be 5af3 adbc 8c97 9e3d 2f1b 1fbe
000000a0: 0237 5d3e 305c 07be 4eca 3b3e cae6 9abe
000000b0: e053 23be 75dc 21be f6f3 e1bd 80d9 583d
000000c0: d759 58be 8fa3 38be c075 353c 2e08 3f3e
000000d0: 935c 03be 31bc 923e 09e8 943e 9a68 543e
000000e0: d601 023e fd35 73be cccd ebbd 3442 78be
000000f0: 788d c2bd 6a27 753e 43d3 843e ba15 4c3e
00000100: 10b8 d73c b953 7dbe 86c3 4e3e 37fe a53e
00000110: 1049 af3c 8fda 16be 1ec6 53be 3236 4ebe
00000120: f383 14be 3a7a 3b3e 92d4 313e 486b 2a3d
00000130: 90f8 d0bd 6e86 6e3e f42f 023e 6087 92bd
0.24909404 -0.10719356 0.09775233 0.30679402 -0.20524517 0.25772205 0.20507905 -0.21408588
0.010323477 0.32583347 0.2134436 -0.3064921 -0.13269581 -0.20064795 0.071932286 0.058684886
-0.13225125 0.1923078 -0.057552874 -0.040590316 -0.19673559 0.33388528 0.30605635 0.2874818
-0.31799752 0.14604026 -0.14322296 -0.28317687 0.329199 0.30139044 -0.12421982 0.31247076
0.07328376 -0.19512857 0.2141827 -0.24355382 -0.29061782 -0.021234203 0.07743749 -0.15537713
0.21603015 -0.1321876 0.18338892 -0.30254203 -0.15949965 -0.15806754 -0.1103286 0.0529418
-0.21128021 -0.18031143 0.011075437 0.18655464 -0.12828283 0.28659204 0.2908328 0.20743027
0.12696013 -0.23751064 -0.11513862 -0.24244004 -0.09499639 0.23940817 0.2594243 0.19930163
0.026332885 -0.24738969 0.20191774 0.32420513 0.021397144 -0.14731811 -0.20681044 -0.20137861
-0.1450346 0.18308344 0.17366245 0.041606218 -0.102036595 0.23293468 0.12713605 -0.07154727

output.bias f4 [10]
00000000: 8505 6fbe 2bcd 6a3e 0d36 a43e aaa4 f43d
00000010: f957 ac3c 36b4 9f3b 6dd7 f6bd 9338 e5ba
00000020: 8428 d2bd fa3a 0c3e
-0.2334195 0.22929828 0.32072487 0.1194547 0.021038042 0.0048737777 -0.12052808 -0.0017488174
-0.10261634 0.13694373
